model.ckpt (torch_old, 30496 bytes, 4 tensors)

hidden_layer.weight f4 [50, 73]
000000 50 2c a5 be fc e6 5a be 65 f6 f3 3e 4c 3a e4 3e
       -0.3226037 -0.21377176 0.47648922 0.44575727
000010 d1 08 7a 3f 16 9c 32 3c 6a 61 48 be 28 b8 77 3f
       0.976697 0.010901472 -0.1956841 0.96765375
000020 f3 d6 0a bf 90 b7 1d bf 48 8d c6 3e 43 7e 74 bd
       -0.54234236 -0.6160822 0.38779664 -0.059690725
000030 ae 74 8a be 0c d1 e7 be db f8 20 3f c9 51 ff 3e
       -0.27042145 -0.45276678 0.62879723 0.49867085
000040 d8 d0 02 bf bd 4a bf 3e 13 d3 89 3e 14 0d 8d 3e
       -0.5109992 0.37361708 0.2691885 0.2754904
000050 20 f3 87 bf ec 64 f4 3e a1 f0 4e 3c ce 36 d8 3e
       -1.0621071 0.47733247 0.012630613 0.42229313
000060 d5 ea c4 3e 3b 40 cf be a0 30 e6 3d c1 3a 18 bc
       0.38460413 -0.4047869 0.11239743 -0.009291352
000070 51 2b 5a 3f 2b 63 64 3f f9 5d 2c 3d 85 91 17 bf
       0.85222346 0.8921382 0.042081807 -0.5920642
000080 f2 70 80 be 88 70 52 3e be e9 f1 3e c5 8d 35 bf
       -0.2508617 0.2055074 0.47248644 -0.7091945
000090 40 c9 1d bf fc 80 8d 3d c9 b6 81 be dd ce 39 bf
       -0.6163521 0.069093674 -0.25334767 -0.72581273
0000a0 6d b1 02 3f 83 7e 24 bf cb 03 54 3f 52 2a be 3e
       0.5105198 -0.6425554 0.8281829 0.37141663
0000b0 a3 9c 34 bf 4c 8b dc bd e1 fa 24 3f 40 e9 24 3e
       -0.7055151 -0.10768756 0.6444531 0.16104603
0000c0 f9 7e 45 bf 21 38 03 3f 2f 7a 30 bf f8 9d d6 3e
       -0.7714687 0.5125752 -0.6893644 0.41917396
0000d0 65 7f 9b 3d 52 b7 5c 3e b3 14 a0 3e 8c 17 8c be
       0.07592658 0.21554306 0.31265792 -0.27361715
0000e0 d3 34 00 3f 9e 6f 3c 3e ac 6a 1a bf 71 14 d7 be
       0.50080603 0.18401954 -0.6031902 -0.42007783
0000f0 72 f7 a1 bb 26 da 1a 3f 97 b3 1d 3f fb 45 a9 be
       -0.004942828 0.6048912 0.6160216 -0.33061203
000100 99 41 eb bd 42 1c 33 bf b0 e0 8f 3e 51 03 71 3d
       -0.11487121 -0.69964993 0.2810111 0.058841053
000110 39 a5 24 3f e2 9e c5 be 79 2e 30 be 91 2b 41 3d
       0.6431461 -0.3859778 -0.17205228 0.04716069
000120 23 9b d6 be 9b 30 06 bf f7 98 03 be 2b b3 2d 3f
       -0.41915235 -0.52417916 -0.1285132 0.67851514
000130 1e d6 41 be 0f 79 34 bf f6 04 5d 3e 83 0c 0b 3f
       -0.18929335 -0.7049722 0.21583924 0.54315966
000140 47 d7 2c be bd 7e 25 3f c2 87 f3 be 74 6b 5a be
       -0.16878997 0.6464651 -0.47564512 -0.21330053
000150 b4 d3 11 bf c1 ce 08 3f 8e dd 93 3e df 22 78 3e
       -0.5696366 0.5344048 0.2887997 0.24232052
000160 9b 67 39 bf 6e 6f 3f be 2c 88 ad 3e 25 1c 40 3f
       -0.72423714 -0.18694851 0.33892953 0.75042945
000170 90 8a 59 bf ec 1e 3f 3e 95 f8 e8 3e 11 8a 5c be
       -0.84977055 0.1866414 0.45502153 -0.21537043
000180 9f 92 3b 3f 27 3f 0b 3f da ab 0e bf 8b eb 91 be
       0.732706 0.5439324 -0.55730975 -0.28500018
000190 f2 32 d0 3e 50 f9 0e bf d1 4b b4 3e dd 02 1a 3f
       0.40663868 -0.5584917 0.35214093 0.6016062
0001a0 de 45 55 bf 01 5e 13 bf 35 60 9a 3e 48 5d 24 bf
       -0.83309734 -0.57565314 0.30151525 -0.64204836
0001b0 b8 61 6f 3f 9b 94 27 be 89 aa 05 3f a8 21 16 3f
       0.9350848 -0.16365282 0.5221334 0.58645105
0001c0 83 09 f1 be d2 20 af be cb e6 0d 3f 12 a7 35 3f
       -0.4707757 -0.34204727 0.5543029 0.70958054
0001d0 ab de d2 3e 6e ad 1d 3f bb 88 48 3f 31 e5 a8 3e
       0.41185507 0.6159276 0.78333634 0.3298736
0001e0 ee 2c 24 bf 49 45 72 be 9e 21 6a be ad 4f 04 3f
       -0.6413106 -0.23659243 -0.22864386 0.51684076
0001f0 5d 07 76 3d 20 d1 27 be e4 70 34 be 92 5d 42 be
       0.060065616 -0.16388369 -0.1762119 -0.18981007
000200 09 5a 28 bf 22 1a 32 be da af 2b be ca bf 23 3e
       -0.6576238 -0.17392781 -0.16766301 0.1599113
000210 4b 2a 01 bf 5a ad 0a bf fc 71 b2 3e 7b 47 45 3e
       -0.5045516 -0.54170763 0.34852588 0.19265549
000220 a9 4f b9 3e 89 90 2b bf 7f b7 1b bf 9a d6 f5 be
       0.36193588 -0.6701742 -0.6082687 -0.4801529
000230 03 d2 58 3f 0e 3a 8a 3d 25 85 ea 3d f1 9d c1 bb
       0.8469545 0.06749354 0.114511766 -0.0059087207
000240 f8 90 04 bd a8 59 47 3f 1a 8d 17 3f 15 2b b6 be
       -0.032364815 0.7787118 0.5919968 -0.35579744
000250 0f 2c fc 3e fb 98 ef 3d c6 d9 1d bf be b6 52 bc
       0.49252364 0.116991006 -0.6166042 -0.012860952
000260 89 3b 11 3f 9d e3 b5 3e cc 18 51 be 85 8c 1b 3e
       0.5673147 0.35525218 -0.20419616 0.15190323
000270 37 32 05 3d 74 50 22 3f ba d4 e0 3e ba 4c 13 3c
       0.03251859 0.6340401 0.43912297 0.008990461
000280 fd 01 ec bd 1f 12 4a bf b5 3a 14 3f c1 c5 29 3f
       -0.11523817 -0.789339 0.5790208 0.66317374
000290 e4 81 12 3f a0 1c 6c bd 6d c1 a3 be 03 b6 1c 3f
       0.5722945 -0.057644486 -0.3198351 0.6121523
0002a0 99 ae 1f 3e 1b fc c0 be 9d f3 c9 3e bb f8 30 bf
       0.15593947 -0.3769234 0.39443675 -0.6912953
0002b0 19 e1 ab 3e e7 78 bb bd c0 6f 1d 3e 53 3c 23 3d
       0.33570173 -0.0915392 0.1537466 0.03985245
0002c0 03 fd 15 3f 07 f5 dc be d5 ce 5e 3f 31 05 cb bd
       0.5858919 -0.4315569 0.8703435 -0.099130996
0002d0 72 6a 11 3e fd 4d 27 3e f6 98 01 bf 70 63 ac be
       0.14200762 0.16338344 -0.50624025 -0.33669615
0002e0 1b 5f fe bd 69 b0 d8 3c b6 8a 83 be 56 0a 0c bf
       -0.12420484 0.026451306 -0.25691766 -0.5470327
0002f0 16 7d 28 3e 8a 0d 46 3f 95 3b 25 bf af 60 95 3e
       0.16453966 0.7736441 -0.6454404 0.29175326
000300 b3 16 24 3f fd 38 68 3f 8a 08 5d be d5 dc d5 be
       0.64097136 0.9071196 -0.21585289 -0.41770044
000310 ba 17 15 bf e7 69 51 bf c4 39 2b bc b5 68 9c bd
       -0.5823933 -0.8180222 -0.010450784 -0.07637159
000320 d2 5f 74 bf 6b 2a 58 be 20 be 0b 3e 11 cc 1b bd
       -0.9545871 -0.21109931 0.13646746 -0.03803641
000330 f3 27 34 bf a7 24 53 3f dc ce d6 3e ce 91 17 3f
       -0.7037346 0.824778 0.41954696 0.59206855
000340 c4 08 da 3e da 06 d8 be 9d 41 a9 bb 02 f5 71 bf
       0.42584813 -0.42192727 -0.0051652924 -0.9451448
000350 57 fd b8 3e 93 9e 1f bf 89 38 52 3f b7 3c 49 3f
       0.36130783 -0.6235134 0.82117516 0.7860827
000360 17 b7 d6 be fd f6 1b bf dc 2c 4c bf b7 fc bb bd
       -0.4193656 -0.6092375 -0.7975595 -0.09179061
000370 40 5e 71 be 75 d4 af 3e 11 87 3e bf 6f f7 ad be
       -0.2357111 0.3434178 -0.74424845 -0.3397784
000380 c8 12 3d 3f b4 9e e2 3e 2e c5 e8 3e b8 44 9f 3c
       0.7385678 0.44261706 0.45462936 0.019441947
000390 e6 6a 68 3e dc d9 12 bf d9 63 29 bf 22 a4 88 3e
       0.22697029 -0.5736368 -0.6616798 0.26687723
0003a0 7a fb 7f bf 33 87 b0 3d ee 6f 02 3e be 74 1b be
       -0.999931 0.08619537 0.1273801 -0.15181252
0003b0 ef d5 33 3f 8b c2 06 be bf 25 05 3e 13 fd 18 bf
       0.7024831 -0.1316015 0.1300268 -0.5976116
0003c0 48 5a 08 3f 00 98 3d 3f fe 0c 85 3f 37 e4 b2 3e
       0.5326276 0.7406006 1.039459 0.3493974
0003d0 c3 51 74 bd f4 af 1f bf 66 7a e7 be 62 e7 4e bd
       -0.059648287 -0.6237786 -0.4521057 -0.050513633
0003e0 6e 92 27 bf cd 32 27 3e 10 f9 02 3f d3 03 d6 be
       -0.6545781 0.16327973 0.5116129 -0.41799793
0003f0 4b 15 f9 3e ba 61 d7 3d 67 27 30 be 1e fe 27 3e
       0.48649058 0.10516687 -0.17202531 0.16405532

hidden_layer.bias f4 [50]
000000 6f 87 50 bd 3e 19 21 3d 7c cf 48 3e 16 40 62 3e
       -0.05091041 0.039330713 0.19610399 0.2209476
000010 22 e9 81 be 70 3d ca be 6d 9c 11 3d 8f 1c f4 3d
       -0.2537318 -0.39499998 0.03554957 0.119195096
000020 ef e1 13 bb b4 88 da 3a 28 f2 68 3e 2e ab 06 3e
       -0.0022565087 0.0016672821 0.22748625 0.13151237
000030 39 28 f5 3c 43 52 51 3c 1a 1e 9a 3e a1 8d 33 be
       0.029926406 0.01277596 0.3010109 -0.17534496
000040 99 b4 6d 3e 07 e3 dd be d1 51 00 3f 6e b0 73 3d
       0.23213424 -0.4333727 0.5012484 0.05949443
000050 b0 7b bb bd fc ba b9 be 1e 33 d7 3e 52 7f e2 be
       -0.09154451 -0.3627547 0.42031187 -0.44237763
000060 fc 0b c1 3e 48 67 89 be 88 c8 d0 bc 62 70 96 3c
       0.37704456 -0.2683661 -0.025486246 0.018364135
000070 6a 5e 91 3e 6d 7a 8e be c5 c5 5d 3d 50 8f 82 3e
       0.28392345 -0.27827778 0.054143686 0.25499964
000080 c2 16 2e 3e 55 ba 99 3c e1 2c 8a 3e 92 f9 10 3e
       0.17000869 0.018765608 0.26987365 0.14157704
000090 3a ea 0e bc fa e8 30 3e ff 49 b8 bd 18 27 03 3d
       -0.008722836 0.17276374 -0.08998489 0.032019705
0000a0 8f b4 07 be a3 13 83 bc 99 41 36 be bd 3d 6f 3e
       -0.13252471 -0.016000574 -0.17798461 0.23363395
0000b0 f5 13 83 3e d4 74 4c be 6d d2 c6 3e e7 13 9d 3d
       0.25601164 -0.19966441 0.38832417 0.07669812
0000c0 d7 21 70 3d 70 80 77 3e
       0.058626022 0.24170089

output.weight f4 [73, 50]
000000 eb 2a f9 3e f1 3f 71 3e cd 71 7d 3e c8 1e 1a 3f
       0.48665556 0.23559548 0.24750443 0.6020322
000010 13 f1 cd 3d 5e 1c fc 3e 43 4c 19 bf f4 ee 2c bf
       0.10055747 0.49240392 -0.5988199 -0.67552114
000020 cd a8 03 3f 0f 8e 64 bf 75 0a 02 3f 36 1e 95 3d
       0.51429445 -0.89279264 0.50797206 0.07281153
000030 71 1e ca 3e 33 1f 5c 3f 25 79 25 3e 66 84 1d 3f
       0.3947635 0.85985106 0.16159494 0.6153015
000040 6f 4c e5 3e ad ad df 3d 3c 4a 37 3f 11 cd c1 3e
       0.44784877 0.10921798 0.7159765 0.37851766
000050 b6 b3 5f 3e 7b 37 31 3f 80 39 e4 3e f4 7c 21 3f
       0.21845898 0.6922528 0.4457512 0.6308129
000060 32 a6 28 3f 9b b5 29 be e5 bb 93 3e 48 86 1b bf
       0.65878594 -0.16573183 0.2885429 -0.6075177
000070 e9 8f 8a bf c9 f3 05 3c 5b 0e 24 bf 09 bb 16 be
       -1.0825168 0.008175799 -0.64084405 -0.14719786
000080 94 ba 4d bf 6e 39 50 bf 3e 5d 34 3f 64 f0 40 bf
       -0.8036282 -0.8133763 0.70454776 -0.75366807
000090 99 5a 49 3f 46 b3 07 3f 92 a1 08 3f 4f a6 7e 3f
       0.78653866 0.53007925 0.53371537 0.99472517
0000a0 2b 53 5a 3f 0a 44 9b be 80 50 48 be fb 76 81 be
       0.85283154 -0.30325347 -0.19561958 -0.25286087
0000b0 fc 9f cd 3e 4a 5a 46 3f 74 32 8b bf 3e eb 61 bf
       0.4016112 0.7748152 -1.0874772 -0.88249576
0000c0 5b 47 80 be 86 fd 2f 3f fb 69 91 3e 7c db 4d 3d
       -0.2505444 0.6874622 0.2840117 0.050258145
0000d0 21 d3 01 3f fc 9f 48 3e 9f e9 16 3f c5 ba 34 3f
       0.5071278 0.19592279 0.5895023 0.7059749
0000e0 c3 38 d9 be fe 74 91 be a0 14 2a bf 14 de ea be
       -0.42426118 -0.2840957 -0.6643772 -0.45872557
0000f0 4f 0e 13 3f e9 71 67 3e cd 87 11 3f 74 6a 24 3f
       0.5744371 0.22602047 0.5684784 0.64224935
000100 8f 2b 5e bf 04 c9 3c 3c 01 61 8b 3c 92 56 4f 3e
       -0.86785215 0.011522535 0.017014029 0.20247868
000110 73 fa 29 bf 3b cf 98 3f 2b 6e ae 3d df 6d 0e bf
       -0.6639778 1.1938242 0.085171066 -0.556364
000120 ce 4c 80 bf c7 42 6b 3f f1 57 fe 3d ba 41 4d be
       -1.0023439 0.9189877 0.12419117 -0.20044604
000130 23 ea c1 3e ad cf 18 bd 60 e8 58 bf 4b 9d c8 3e
       0.37873945 -0.03730743 -0.84729576 0.39182505
000140 68 33 31 bf 31 da 8e bf f0 9f 47 3f 35 d3 12 bf
       -0.69219065 -1.1160337 0.7797842 -0.57353526
000150 7e be 18 bf 33 68 d8 3d f9 91 53 3f bb bd 1e be
       -0.5966567 0.105667494 0.8264461 -0.15502064
000160 b1 b3 85 bf 78 4b b8 3e 3b b0 b9 3e 77 41 25 bf
       -1.0445462 0.35995078 0.36267266 -0.64553016
000170 4e 7a 25 3e 28 c5 33 3e db 63 82 3e 5c 3e 31 3f
       0.16159937 0.17555678 0.2546681 0.6923578
000180 87 db ff be 33 c9 a0 be 95 51 57 3e e0 5f 28 be
       -0.49972174 -0.31403503 0.21027215 -0.16442823
000190 a6 1a 38 3f e7 c6 50 3e 84 24 8e 3f ad e7 83 3d
       0.7191566 0.20388375 1.1104894 0.06440673
0001a0 95 c6 57 3e c2 40 91 3f 6a d8 99 3f b4 5c 84 3e
       0.21071847 1.1347888 1.2019169 0.25851977
0001b0 64 f2 86 bf 4e d5 8e 3f 91 89 b3 3f 9e 21 97 3e
       -1.0542722 1.1158845 1.4026357 0.29517835
0001c0 08 01 d4 bf a6 05 f4 be 9b 81 a7 bd c0 c4 f2 bd
       -1.6562815 -0.4766056 -0.08179017 -0.11853933
0001d0 de dd 5f 3f 9e a7 f6 bd 7f 79 48 3f fb 2d fe be
       0.8744792 -0.12043689 0.7831039 -0.49644455
0001e0 b4 66 ae be d7 87 2d 3e 65 96 b2 be 73 dc 27 bf
       -0.3406273 0.1694635 -0.34880367 -0.65570754
0001f0 9c f2 8a bf 2c f8 3f bf 32 9c 53 bf ea fe ad be
       -1.0855289 -0.74988055 -0.8266021 -0.33983546
000200 95 07 a0 3e b9 51 da bf 19 8d 9e bf 98 37 32 bf
       0.31255785 -1.705619 -1.238681 -0.6961608
000210 40 91 21 bf 76 e7 34 3f 3f fb 6f 3f 71 b7 8c 3f
       -0.6311226 0.7066568 0.93742746 1.0993482
000220 c8 41 a6 be e8 44 78 bb 62 fe 33 bf f3 f6 64 3f
       -0.32472062 -0.0037882868 -0.7031003 0.89439315
000230 a8 b6 46 bf cc 9f 80 bd f6 e3 70 bf 19 b9 d8 3f
       -0.7762246 -0.06280479 -0.9409784 1.6931487
000240 19 2e c3 be 53 0a 93 bf d8 9c 83 be 93 90 96 bf
       -0.38121107 -1.1487526 -0.257056 -1.176287
000250 da 05 41 3f a0 91 7f bf cb e9 de be 78 9e de 3d
       0.75399554 -0.9983158 -0.43537745 0.10870069
000260 2e e2 57 be ec 4e c2 be 27 b2 f0 be ba f3 99 3f
       -0.21082374 -0.37950838 -0.4701092 1.2027504
000270 bb 11 6a 3f 93 df 0c 3f 54 d2 96 3e 85 62 0e bf
       0.91433305 0.5502865 0.29457343 -0.5561908
000280 d1 7b 3a bf a4 26 15 3f dd d8 e0 bc 79 24 64 3f
       -0.7284518 0.58262086 -0.027447158 0.8911815
000290 c3 66 b9 3d 91 81 94 3f 83 27 20 3e 68 1f df bd
       0.09052803 1.160204 0.15640073 -0.10894662
0002a0 3d 23 55 bf 86 39 07 bf 17 29 72 3e 35 8e 2f 3f
       -0.83256894 -0.5282215 0.23648487 0.68576366
0002b0 35 22 a4 bd 2d 0f d1 be a3 de 63 bf 64 bc 9c be
       -0.08014337 -0.4083189 -0.8901159 -0.3061248
0002c0 8a e3 4c 3f 96 fc 8b 3e 54 5d 0d 3e 05 0e 00 3f
       0.800347 0.27341145 0.13805133 0.5002139
0002d0 d4 26 06 be 62 07 76 be 07 14 22 3f e6 f3 c4 3e
       -0.13100749 -0.24026254 0.6331181 0.3846733
0002e0 17 2f 24 3f 70 ff d4 3e a0 06 fc bd 4f 0c 02 3f
       0.64134353 0.41601133 -0.12305951 0.5080003
0002f0 7d b5 b7 3d 54 6b 11 bf 2d 04 67 be 7f f9 18 3f
       0.08970163 -0.56804395 -0.22560187 0.597557
000300 21 f6 98 3e 43 d5 62 3d 68 51 1f be f8 f4 03 3f
       0.2987528 0.055379163 -0.15558398 0.5154567
000310 8c e3 35 3f d7 cd aa be 29 b8 14 3f 6b c8 b3 3d
       0.71050334 -0.33360168 0.58093506 0.08778461
000320 f2 44 59 3d a1 c4 96 3e 1b 97 46 bf 1c c1 1e 3e
       0.053044267 0.2944689 -0.7757432 0.15503353
000330 9c 57 59 be d4 28 81 be d3 6e 39 bf 7d 5f b2 be
       -0.21224827 -0.25226462 -0.7243473 -0.34838477
000340 05 f4 31 bf b5 a9 19 bf d0 a3 1b 3f 55 25 20 bf
       -0.6951297 -0.6002458 0.60796833 -0.62556964
000350 05 03 2d 3f 47 fd 40 3f 00 ba 47 3f ec 38 72 3e
       0.6758273 0.7538647 0.7801819 0.23654526
000360 c5 2e c6 be cf 76 b1 bf 84 47 5d 3f 2f a9 68 3e
       -0.38707557 -1.3864383 0.8643725 0.22720788
000370 fd ef 80 bf 5e 99 d8 bd 48 79 08 3f 32 b9 6e bf
       -1.0073239 -0.105761275 0.5331006 -0.93251336
000380 70 ac a5 3e 22 3c 45 be 2c 28 b7 3e 15 43 12 bf
       0.32358122 -0.1926122 0.35772836 -0.5713361
000390 5a 84 14 bf e3 18 07 3f 2a 9f 98 be 39 6b cc 3e
       -0.5801445 0.5277235 -0.29808933 0.39925554
0003a0 d5 87 6d bf de e0 04 3e 4f ef 4e bf 28 b0 22 bd
       -0.9278539 0.12976405 -0.80833906 -0.039718777
0003b0 5d 0f 85 3f ca b7 8a bd 1f 66 d3 3e cf b8 9e 3c
       1.0395314 -0.06773336 0.4128885 0.019375233
0003c0 e6 ff 91 3f b0 fb 4d 3f 6b 81 77 3f 15 3f b4 be
       1.1406219 0.8046217 0.9668185 -0.35204378
0003d0 6b ab 74 bd 3c a9 bf be ec 03 1b bf 74 d8 ac be
       -0.05973379 -0.37433803 -0.6055286 -0.3375889
0003e0 82 f9 69 bd b8 56 b3 bd 95 2d f1 be 97 05 bc 3e
       -0.057122715 -0.08756775 -0.4710509 0.36723015
0003f0 0f 99 4a be 7c 13 e2 bd d3 84 42 3f 19 b3 4a 3f
       -0.1978495 -0.110388726 0.75983924 0.7917953

output.bias f4 [73]
000000 d0 65 d8 3d d2 21 c1 3d b5 ee f6 3c eb c7 30 3e
       0.10566294 0.09430279 0.030143121 0.17263763
000010 2c dc d9 bd d7 88 ef 3c 9c fa ab 3d 07 69 36 3d
       -0.106376976 0.029240055 0.08397409 0.044533756
000020 5c 21 2f 3d d6 ca c8 3c f6 ba fa 3d 52 56 f7 bd
       0.042756423 0.024510782 0.12242691 -0.12077011
000030 95 6d 61 3d e6 04 90 bd 40 42 96 3d b9 d8 07 be
       0.055036146 -0.07032184 0.07336855 -0.13266267
000040 26 6a 47 bd dc b1 b4 bc 76 46 06 bd 62 9f 18 3e
       -0.048685215 -0.022057466 -0.03278204 0.1490455
000050 f5 a4 ab 3d 98 eb 79 bc 58 fa 32 b9 90 f3 fc bd
       0.083810724 -0.015253924 -0.00017068663 -0.12351143
000060 36 68 e3 3d 78 15 74 3d f8 d0 27 bc 56 68 89 bd
       0.11103861 0.059590787 -0.010242693 -0.067093536
000070 97 77 cb bc 3a 8e e8 3d 7e 2c 87 3d 14 be b2 bd
       -0.024837298 0.113552526 0.06600283 -0.08727661
000080 7c b8 12 3d d6 b4 52 3d 60 a2 0e 3e 0f ae 0f 3e
       0.03582047 0.05144199 0.13929129 0.14031242
000090 a2 1a 8f bd 00 43 b7 bd 62 98 0c 3e 2d 31 1f 3d
       -0.06987502 -0.08948326 0.13730004 0.038865257
0000a0 66 93 ad 3d 43 e2 8b 3d 5f b8 22 3d 2d b8 2a 3e
       0.0847538 0.068302654 0.03972661 0.1667182
0000b0 16 6e b9 bd 3c d6 c2 bd dd 55 0f 3e 84 14 86 bd
       -0.090542 -0.09513518 0.13997598 -0.06546882
0000c0 6f 51 b7 bd 08 77 1c be aa c0 07 3e ce 5c a4 3c
       -0.08951079 -0.15279782 0.1325709 0.020063784
0000d0 48 e9 f2 bb 70 3a 9c bd 03 d6 fd bd 70 a4 a0 3d
       -0.007413063 -0.076283336 -0.12394335 0.07843864
0000e0 5c 1d 94 3d 1e 34 20 bd fa d3 95 3d ef 2a 31 3d
       0.07232162 -0.039112203 0.07315822 0.043253835
0000f0 7a fc eb 3d 17 d5 c8 3d 93 4a 42 bd d7 83 44 bd
       0.115227655 0.09806269 -0.0474344 -0.047977295
000100 25 3e c6 3c f6 d3 5d bd d1 ff 6e bd 5c 21 e9 bd
       0.024199555 -0.05415722 -0.058349434 -0.11383316
000110 7b f8 dc bd d2 e0 36 3e 28 c8 b2 bd 98 b9 d7 3d
       -0.107895814 0.178592 -0.08729583 0.10533446
000120 d1 a2 97 bc
       -0.018510254
